Autoencoders/undercomplete/undercomplete_autoencoder.pth (torch, 894787 bytes, 12 tensors)

encoder.0.weight f4 [128, 784]
00000000: 5254 f93c 720e 24bc aaa1 e83c b81f f2bc
00000010: 202d cfba d049 82bb 78bf d4bb 45d3 f9bc
00000020: f058 013b e395 87bc 7a07 ef3c b87c fdbc
00000030: 752a 623e 96aa 523e 4b18 3c3d b1ec 5b3d
00000040: 3e6e f03c 251d dfbc 92fc cc3c 50b6 ff3b
00000050: 936f 0e3d f0a2 323b 6ac2 7abc bc1a a03c
00000060: 80e3 dcbc 4027 1bbc 3c6b 90bc aec6 08bd
00000070: 36c6 ec3c 80b5 7f3b e09e b43c 6842 06bd
00000080: 7349 97bd af78 19be ceab 8c3d 14e4 9a3c
00000090: b3cc 1b3d 1c41 bebd c65f a8bd b0ed 38bd
000000a0: 232c bcbd 1446 31be 0394 3cbe 2105 5ebe
000000b0: 01bb 95bd 2b99 98bd ced9 6fbe 34ec 72bb
000000c0: 41c6 e03b 0d63 e43d e632 c4bd e020 b2be
000000d0: aeec f13c 98c5 0cbd ea03 f03c 6890 d3bc
000000e0: 1404 03bd 2a07 96bc 965b 0cbe f9fe f1bd
000000f0: e09f 033d 6969 7fbe 1351 0b3d eb0f 4b3e
00000100: 4c76 433d 238b a9bb 9dfb ab3d 9947 1abd
00000110: d9e5 223c c8e6 a3bd 5ea8 10be b0bb c2bd
00000120: 0568 adbc de8d 86bd ebd4 0fbb d5ba d8b9
00000130: 00a0 733a 3509 8f3c 6062 4d3d 8e75 733d
00000140: 820f 613d 1f49 d6bd 55f4 02bd fa88 c73c
00000150: ea4c cdbc 7885 bb3c cbc4 87be e422 1c3e
00000160: 3323 4e3e b70f 5a3d 0889 be3d afcb 1b3e
00000170: cacb 563e 2576 043c 8260 803d 26a4 7bbc
00000180: 8faa c5bd 980c 20bd 4c40 3ebe 6529 a7bd
00000190: cc36 cdbd fad9 5ebd 387b 923c 9493 bc3d
000001a0: 0382 3b3d 5beb a23c 12f1 9fbd 18c3 16be
000001b0: 4a60 fa3d 9609 023e eac8 7dbe 30be 853c
000001c0: 8514 01bd 849c ec3d 325e 22bc 8d11 e63d
000001d0: 0a8e b63d 912a 053d c433 9b3d a351 803d
000001e0: 3206 173d b4c8 dbbc 0ebb a2bd de97 9bbd
000001f0: bae6 8abd 4f48 413c 340e 2e3d 4e0d 96bb
00000200: 809d ab3b 1a3c 5cbd 2400 9fbd 12e3 16bd
00000210: 65d1 cbbc ccd8 7a3d 9393 503d 8e5f 29bd
00000220: 676a 4f3d 7822 c4bd 1f7b 1fbe 46e0 1dbe
00000230: 787f c33c a048 ac3c acef ab3e d6ea 28bc
00000240: 58db 2c3e ccb2 dbbc 09ad fd3c 92bc e7bc
00000250: a378 eb3c d9ce c2bd 0772 0fbe 933c f6bd
00000260: 0ca9 3abd 0c5c 33bb dfc9 753c 7052 08bc
00000270: 91fd 863c 0a23 9dbd 5beb 1ebd bec4 5ebc
00000280: 6544 953d 8415 b63d 56da 643d 2cce 063e
00000290: 867a 1b3d ff20 5bbd 162c e1bd bd0d 71bd
000002a0: 485e 96bb 7f96 783d 0e88 48bd d000 763c
000002b0: 1299 53bd bc1a 3bbb b5df 1cbc d7e4 6c3d
000002c0: 9f95 a23c aa94 82bc bb8f ddbd 75ca adbd
000002d0: 3df2 74bd f35c 9bbc c427 d93b 82f9 8c3c
000002e0: 5a53 20bd c4a4 9ebc ab0d 533d 1461 343d
000002f0: 4d4c c03d b897 193d 6f8b 883d dfce 17bd
00000300: 9bd6 c13b e252 fdbd 2a81 bbbc 9021 063e
00000310: 81ae 0c3d a6cd 413d a643 ddbd fcdc 763d
00000320: a496 9e3d b288 1ebc bcab d73d 7f41 013e
00000330: 9650 aa3d dcd2 e5bb f8ce 2dbd 5bf8 6fbd
00000340: 3271 90bd 8505 dfbc e996 963c 5495 cb3b
00000350: d321 36bd ab14 0cbd c1ce 12bc 3908 513d
00000360: ffe8 503d f873 923d dcd9 223a d44e 143d
00000370: 51a4 edbb e328 a03d 2635 103c b21f c3bd
00000380: d7f1 93bd 2adb 82bd 02ef 9c3d cd23 013e
00000390: bd88 b43c 568a 2f3e 9afb 263e ca5f 423e
000003a0: aeae fb3c cfbf edbc c205 1fbd ecd9 91bd
000003b0: ca0e 01bd 31b2 643b cb6d e03c 2445 313c
000003c0: 958c 2cbc 79ae ddbc beac a0bb 19cc 0c3d
000003d0: 88b9 d73c fa7e 453c a246 87bc 0ac4 1f3d
000003e0: 7e55 77bd 4d84 8b3b 6b29 46be 361c df3c
000003f0: d5bc e6ba 3179 323e 80c3 11be 83a0 003b
0.030435715 -0.01001321 0.0283974 -0.02955614 -0.0015806295 -0.0039760843 -0.0064925514 -0.030496249
0.0019736849 -0.016550964 0.02917837 -0.03094326 0.22086509 0.20572886 0.045921605 0.053692523
0.029349443 -0.027235577 0.025022779 0.0078037158 0.034774374 0.0027257763 -0.015305141 0.019543998
-0.02696395 -0.009469807 -0.017629258 -0.0333926 0.028903108 0.0039018095 0.022048414 -0.032778174
-0.07387056 -0.14987443 0.06868707 0.018907584 0.038037013 -0.092897624 -0.08221392 -0.04514855
-0.09188106 -0.17311889 -0.18415837 -0.21681644 -0.07311059 -0.074510895 -0.2342293 -0.0037067058
0.006859571 0.11151705 -0.095800206 -0.34790707 0.029531803 -0.034368128 0.029298741 -0.025825694
-0.03198631 -0.018313963 -0.13706812 -0.1181621 0.03213489 -0.24942555 0.034012865 0.19830291
0.04772024 -0.005174057 0.08397601 -0.037665937 0.009942495 -0.080030024 -0.14126727 -0.09508455
-0.021167764 -0.06570028 -0.0021946977 -0.0004133793 0.0009293556 0.017460445 0.050142646 0.05943828
0.05494643 -0.104631655 -0.031971294 0.024357308 -0.02506109 0.022890791 -0.2651733 0.15247685
0.20130615 0.053237643 0.093034804 0.15214418 0.20976177 0.0080848085 0.062684074 -0.01535896
-0.09651672 -0.03907451 -0.18579215 -0.08162192 -0.10020217 -0.054407097 0.01788102 0.09207836
0.045778286 0.019887617 -0.078096524 -0.1472286 0.12225397 0.12698969 -0.24783674 0.01632604
-0.03151371 0.115532905 -0.009910153 0.11233816 0.089138106 0.032511298 0.07578233 0.06265571
0.036871143 -0.026829101 -0.07945834 -0.07597326 -0.06782289 0.011797025 0.042494014 -0.0045792228
0.0052372813 -0.053768255 -0.07763699 -0.036837645 -0.02488012 0.06124191 0.050921988 -0.041350894
0.050638583 -0.09576887 -0.1557431 -0.15417585 0.023864493 0.021030724 0.33581293 -0.0103098955
0.16880548 -0.026818655 0.030966299 -0.02828816 0.028744048 -0.09512109 -0.14008342 -0.12023272
-0.045571372 -0.0027368097 0.015001743 -0.008320436 0.016478332 -0.07672699 -0.03879867 -0.013596712
0.07288436 0.088908225 0.055872284 0.13164586 0.037958644 -0.053498264 -0.10994737 -0.058850992
-0.004588876 0.0606904 -0.048957877 0.015014842 -0.05165965 -0.002854987 -0.00957482 0.057835426
0.019846736 -0.01594003 -0.1081843 -0.08485881 -0.05980133 -0.01896522 0.006627055 0.017208818
-0.03914199 -0.019365676 0.051526707 0.044037893 0.09389553 0.037498206 0.0666722 -0.037062522
0.0059154755 -0.12369324 -0.022888739 0.1309874 0.034346107 0.047315262 -0.108039185 0.06026934
0.07743576 -0.009676145 0.105308026 0.12622641 0.08316152 -0.007013662 -0.04243371 -0.05858646
-0.0705284 -0.027224312 0.018382506 0.0062128697 -0.04446585 -0.034199398 -0.008960427 0.051033232
0.051003452 0.071510255 0.0006212273 0.03620799 -0.007252254 0.078202985 0.008801734 -0.0952753
-0.07223862 -0.063894585 0.076627746 0.12611313 0.022037858 0.17142615 0.16306916 0.18981853
0.030722942 -0.029022126 -0.03882385 -0.071216434 -0.031508245 0.003489625 0.027396103 0.010819707
-0.010531564 -0.027060734 -0.004903405 0.03437433 0.026333585 0.012054199 -0.016513173 0.039005317
-0.060384266 0.004257715 -0.19351737 0.027235132 -0.0017603884 0.17429043 -0.14234734 0.0019626922

encoder.0.bias f4 [128]
00000000: 93c5 aebe 7556 2c3f d56e 36bd 58a4 3a3e
00000010: 13e6 ba3c bf65 06bd b37a 813f 81ee 443c
00000020: 8281 d2bc 3994 4e3e 2907 623f 4bf3 573c
00000030: 2806 a8bb 5153 c83b 8253 273c dba5 80bc
00000040: 0e79 443f ac5e fc3e 1194 8e3f 188c ea3e
00000050: e47c 1d3b f462 813e 3f74 543f 988c febc
00000060: d20f 453b 28ce 353e cab9 5c3f 4d9d 7d3b
00000070: 55f5 d73e 04d5 aebc 6a16 1abd 5b3a b4be
00000080: 9b11 0d3f f80e 06be b492 8b3d e74f 143a
00000090: 2669 a63d f31c 8f3e 3311 153e b93b 18bd
000000a0: 4ddd ad3e da1e 643e 1c5b 5dbe e0ce adbc
000000b0: 5531 0b3f 46e6 0bbd c952 ecbc 634e 02bc
000000c0: 86ef d0bc 1e42 2b3e bea1 2ebe 9476 fbbd
000000d0: b54e 1f3f 8b18 223f ccc1 35bd 6c53 ccbb
000000e0: b1dd cabd 23ad 223e d6dd 37be 559b 9a3e
000000f0: 9fbe 163f 9c61 1e3f 883a 97be 74ed 253e
00000100: af6d 7e3e d24a efbc e08d 14bd c078 2fbd
00000110: ba91 16bd 1add 683f 15ee ec3e f064 a0bd
00000120: f0ee 1dbd 2a8b 39bd d43b eebd 31f7 433e
00000130: c6f5 02bd 77e1 98be e72d 653f de0f ebbc
00000140: 261d fe3d 4270 10bd 9593 013f 4fa4 03bd
00000150: f7d5 4f3f 3a0d c3bb 49d7 3e3a 8e1d fd3e
00000160: 00f6 29be 5518 153d 9cc3 23bd 04d5 1cbd
00000170: 9d37 5b3f b401 263f cb8f 6c3f 427c 23bd
00000180: 646b 443f c73e 7c3f f167 b8bd 5093 2d3e
00000190: 3515 79bc 9603 20be 4070 903c c7b9 923f
000001a0: d434 36bc 081d 01bd c77d ee3e 6d68 1f3c
000001b0: 4e75 c9bc 3056 293f ee8c e7bd 6615 3a3f
000001c0: f25d 9f3e 09a7 2ebc 3ee0 b0be 8d0a 35be
000001d0: 4ea1 b03a 9fea 313e 8d12 323f 6c3b 11bd
000001e0: a226 a83e 574d 5d3e 4bdb 6cbd 18e2 b53e
000001f0: cd34 55be 05fd 1a3f 68b2 5dbd a5c1 babe
-0.34135112 0.6731942 -0.04453929 0.18226755 0.022814786 -0.032811876 1.011557 0.012019754
-0.02569652 0.2017373 0.88292176 0.013180564 -0.005127687 0.0061134477 0.010212781 -0.015704086
0.76747215 0.4929098 1.1138936 0.45810008 0.002403074 0.25270808 0.8298988 -0.0310729
0.0030069244 0.17754424 0.8622099 0.0038698495 0.4217936 -0.021341808 -0.037619032 -0.35200772
0.5510499 -0.13091648 0.06815091 0.00056576583 0.08125524 0.27951774 0.14557342 -0.03716633
0.33957902 0.22277394 -0.21616787 -0.02121681 0.5437215 -0.034155153 -0.028848069 -0.007953259
-0.025504839 0.1672444 -0.17053887 -0.12278476 0.6222947 0.633187 -0.044374272 -0.0062355306
-0.099055655 0.15886359 -0.17955717 0.30196634 0.58884615 0.6186769 -0.29536843 0.16203862
0.24846528 -0.029210482 -0.036268115 -0.042839766 -0.03676007 0.90962374 0.46275392 -0.07831752
-0.038557947 -0.045298733 -0.11632505 0.19137265 -0.03197267 -0.29859516 0.89523166 -0.02869409
0.124079034 -0.035263307 0.5061582 -0.03213912 0.8118586 -0.0059525045 0.0007280005 0.4943661
-0.16597748 0.036400158 -0.03998147 -0.038289085 0.85631734 0.6484635 0.9240691 -0.039913423
0.76726365 0.9853329 -0.090042 0.16950727 -0.01520281 -0.15626368 0.01763165 1.1462945
-0.011120994 -0.031521827 0.46580335 0.009729487 -0.024592068 0.66147137 -0.11306177 0.726889
0.31126362 -0.0106599415 -0.34546083 -0.17679806 0.0013475807 0.17374657 0.69559556 -0.03545706
0.32841974 0.21611534 -0.05782632 0.35524058 -0.20820923 0.6054233 -0.05412522 -0.36475864

encoder.2.weight f4 [64, 128]
00000000: 15e9 cebd 0d65 da3e e81f 68bd 263c c43d
00000010: 0160 433b c064 663d 73c9 0abe 17a6 3fbd
00000020: 1cb3 9c3d 6988 713e 7427 66be 0c8a 853d
00000030: 2840 9db9 bcc9 363c 94b5 293d 16ae 4f3d
00000040: 482f 303e 8ea7 0c3e b02f 50bd 5107 143e
00000050: 68eb 2e3a 34fc e7bd 2fa4 1e3c 96b7 9abc
00000060: d7d7 883c 7e70 4d3c 1517 e13d 180c 52bb
00000070: 1129 c2bc 63b0 a03d 31f7 373d bd8b 4f3d
00000080: 2d68 31be 46d5 d1bd e993 80bc 7c47 bbbd
00000090: a8a4 0a3e f8c1 e23d c6ec fb3b 1e69 823d
000000a0: 88ea 4a3e b66b dcbd fa91 aabd 8126 783d
000000b0: 5e3f 90be d52e a13d 2a81 8cbd 9070 a8bd
000000c0: 3d7a 05bd 110f 523e c2e3 4b3d c635 d5bd
000000d0: c0c7 97bc 6c03 b5bd d66f f63c 66ad b1bc
000000e0: ef81 a03d 852c 64bd eaf6 4e3d 729e 793e
000000f0: a461 893e f04c bcbd 71ef ea3c 51dc 31be
00000100: e88f c43d e431 8b3d 2e0d 963c c1fb 6cbc
00000110: 54cf cc3c 693e 11be 27e9 553d 1160 fdbd
00000120: 3443 b4bb a642 a2bd d1a1 443d bb26 54bd
00000130: 28db 933d e24a febd fd45 c73d 181d 4dbd
00000140: cda3 183c 577a a33c ea69 773e 69ed c53b
00000150: 0cba 5dbd e6e2 fdbc e69c 0fbd a752 0abe
00000160: ad92 a73d 5ec7 973e d3ed b1bd e81e a73c
00000170: b7b3 0a3e 6c17 303d 630c 993e 53cb 9fbd
00000180: 0f52 203e ad50 8b3d e729 8abd 2220 03be
00000190: a618 4ebc 139b 133e ad06 2d3d 5276 34bd
000001a0: 0695 033d 7cb9 9b3d 03a7 b53d 54d3 713d
000001b0: d610 5bbd 0697 54bd d500 483e 861d f7bd
000001c0: 2fe3 c6bd 8ef5 3c3b 41ac c13d e433 edbd
000001d0: a22c aebd 92bb a63d c433 ba3d fb84 db3a
000001e0: 6626 0fbc 6619 2a3e 9495 c43c 4a5c 1c3e
000001f0: c50b 1e3e a925 ad3d c837 cb3d d7a6 483e
00000200: d3c0 a2bd 7209 563e d729 7dbc f521 3dbd
00000210: 6390 3b3d 62b3 163d 4562 f73c 16af b0bc
00000220: b6c9 9abd fc45 8dbb 7ab9 2b3d f4fa a03d
00000230: 38fc a13c e039 8cbd 3b88 52bd c09b 883d
00000240: fc0a c43d 25df ccbd b2c6 733d a883 063e
00000250: c21d 04bd f3b3 883d 732d 033e e516 c73d
00000260: d2c4 523d f9d5 2c3b b314 ca3d 9b6d c33c
00000270: 165b d93d 1427 81bd 96ab 0abc f0aa 5dbd
00000280: c44f 6ebd 502c ea3d 468c 833d 690c 13bd
00000290: 46da e3bc e599 3f3d d62a ff3d 2263 7a3d
000002a0: cdec 703c b439 a63a cca5 66bc bc0f c7bc
000002b0: 9c7e 673d d109 e53c 07f7 89bd 312f e0bb
000002c0: 3917 5d3c 5fd1 3a3d 8b3d 273e 678f 13bd
000002d0: ee5f 6a3d 5169 7abc d736 4fbd c917 92bd
000002e0: 569f e9bc a685 debb 4642 45bd 29c6 903d
000002f0: 0ba9 93bc d796 febc 5b53 9f3d f82d 6a3d
00000300: 1433 113e 3f39 89bd ab71 19bd 869c 51bd
00000310: 4b0a b9bb b8a5 af3e 0513 02bd ed9f a53d
00000320: ba7b 0f3d 965f 83bd 8e51 533d 03f4 aebd
00000330: e7ef 703d 1421 27bd 7b56 3ebd 3159 49bd
00000340: 53ef 7bbd e590 0d3c 134e ddbd de90 853d
00000350: 76a8 8ebd 3e76 9abd d245 8f3c 2bcb d9bc
00000360: 91cc d93d ddce 8cbc 0012 723d 08b7 a4bd
00000370: 2fd3 60bc 3358 d73d 6a30 173e 1ecb 73bb
00000380: 52a6 243e a75a a03e 1097 393d 1120 f53d
00000390: d4a0 b13c 5d3c 2ebe 9b13 fcbb 6c8e 413a
000003a0: bd6a 563d c2c7 08bd ebf7 8c3d 7c2e b53b
000003b0: 4e56 abbd 2751 d63d b4cd 0c3d 005b 64be
000003c0: 48f3 af3d 1b7f 623d dd90 38bc ae6a 5dbd
000003d0: dcaa fb3c ff89 a23d 4f35 65bd c9ea ab3c
000003e0: fcac 9f3d d523 9d3d e331 883d 2abe dcbc
000003f0: 696e 1d3c ee13 bcbd 7a6b 8cbd 9d30 15bd
-0.101030506 0.4265522 -0.056671053 0.09581785 0.0029811861 0.056248426 -0.1355341 -0.046789255
0.0765135 0.23587193 -0.22475988 0.06520471 -0.00029993174 0.011156496 0.041432932 0.05070313
0.17205536 0.13735792 -0.05082673 0.14455916 0.00066726515 -0.11327401 0.009682699 -0.018886369
0.016704483 0.012539027 0.10990731 -0.0032050665 -0.023701223 0.07846143 0.044913474 0.050670374
-0.17324896 -0.10245757 -0.015695529 -0.09144494 0.13539374 0.11072153 0.0076881377 0.06367706
0.19816029 -0.10762732 -0.08328624 0.060583595 -0.28173345 0.078702606 -0.068605736 -0.082245946
-0.03258728 0.2051356 0.049777754 -0.10410647 -0.018527865 -0.08838543 0.030082624 -0.021689128
0.07837283 -0.05570652 0.050528444 0.24376848 0.26832306 -0.09194362 0.028678628 -0.173692
0.095977604 0.06796625 0.018316831 -0.01446432 0.025001206 -0.14183964 0.052224305 -0.12371839
-0.0055011753 -0.079228684 0.048005883 -0.05179475 0.07219535 -0.124166265 0.09730146 -0.050076574
0.009316397 0.019955797 0.24161497 0.0060402644 -0.054132506 -0.030991983 -0.03506174 -0.13508092
0.08182273 0.29644293 -0.086879395 0.02040048 0.13545118 0.042991087 0.29892263 -0.07802453
0.15656303 0.06802497 -0.067462735 -0.12805226 -0.012579119 0.14414625 0.042242695 -0.04405815
0.03212454 0.07603738 0.088697456 0.05903943 -0.053482853 -0.05190184 0.19531567 -0.12066178
-0.097113006 0.0028832885 0.09456683 -0.11582163 -0.08504607 0.08141245 0.09091905 0.0016748005
-0.008737182 0.16611251 0.023997106 0.1526958 0.15434177 0.08454449 0.09922749 0.19594894
-0.079469346 0.2090204 -0.01545187 -0.046174962 0.045791995 0.036792167 0.030198226 -0.021567862
-0.075580046 -0.0043113213 0.04192493 0.078603655 0.019773588 -0.06846976 -0.05139945 0.06670332
0.095724076 -0.10003499 0.059515662 0.1313616 -0.03225494 0.066749476 0.12810306 0.09721164
0.051457234 0.0026372655 0.09867229 0.023855975 0.106130764 -0.06306282 -0.008463761 -0.054118097
-0.05818154 0.11434233 0.064232394 -0.035900507 -0.027814042 0.046777625 0.12459342 0.061129697
0.014704895 0.0012681992 -0.014077615 -0.024299495 0.05651723 0.027958782 -0.0673657 -0.006841563
0.013494306 0.045609828 0.1633207 -0.03602543 0.057220392 -0.015283898 -0.05058941 -0.07133443
-0.02851836 -0.0067908345 -0.048158906 0.07069046 -0.018024942 -0.031077785 0.07779571 0.057172745
0.14179641 -0.06700372 -0.037461918 -0.051174663 -0.005646979 0.3430612 -0.03175642 0.08087144
0.035030104 -0.06414716 0.05159145 -0.08542635 0.05882254 -0.04080303 -0.046469193 -0.049157325
-0.061507534 0.008640503 -0.10805907 0.06521772 -0.06965725 -0.07542084 0.017489348 -0.026586136
0.10634721 -0.017188484 0.059099197 -0.08042723 -0.013722225 0.105148695 0.14764562 -0.0037199925
0.16079071 0.31319162 0.04531008 0.11969007 0.021683134 -0.17015214 -0.007692767 0.0007383588
0.052347887 -0.03339363 0.06883224 0.005529223 -0.08366071 0.10464697 0.03437586 -0.22300339
0.08591324 0.055297 -0.011265007 -0.054056816 0.03072112 0.07936477 -0.055959042 0.020985978
0.07796666 0.0767285 0.0665014 -0.026946146 0.009608843 -0.09183489 -0.06856437 -0.036423314

encoder.2.bias f4 [64]
00000000: 0868 9abd 9510 0b3e 1216 2cbe c99a 9ebc
00000010: 1556 bf3e 6367 893d 2e9d ff3c c224 07be
00000020: acaf ab3e b216 2fbb 98c4 5f3e e0fe c4bd
00000030: d0fa 3a3d 28ae 97bc d0b7 943e 018b 03be
00000040: 6a83 9e3e 9b05 3dbe d241 1bbe 9fca 7f3d
00000050: c282 cbbd 1e84 023d a7ea a03e 5e73 32bc
00000060: 2023 583b 3e72 713e afbe 1d3d 9ede 823e
00000070: 49a5 a7bd 6c02 6cbd 13be 4c3e b212 593e
00000080: f264 7dbd c6c7 9f3d 4560 2abe 075c dfbd
00000090: 448b 90be 0161 be3e 8ab3 103d 6b09 553d
000000a0: a268 fabd 0fb4 a13e e9ba abbd 32d8 b43d
000000b0: dfcb 58bd ea02 95be c994 183f 7184 2b3d
000000c0: 972f 133f 4ca6 093f c617 6ebd 1e31 233d
000000d0: 574c 1cbf 8177 1d3f d724 90bd 31b9 0abf
000000e0: 2474 e03e d236 21bd 5c65 823e 4c97 27be
000000f0: 7e98 0bbe 1210 17bd 2fcc a8bc a7e7 f53e
-0.07539374 0.13580544 -0.16805294 -0.019360917 0.37370363 0.067091726 0.031202879 -0.13197616
0.33532465 -0.0026716408 0.21852338 -0.09618926 0.04564935 -0.018515661 0.29046488 -0.12845995
0.30959636 -0.1845917 -0.15161827 0.062449094 -0.099370494 0.031864278 0.31429026 -0.0108917635
0.003297992 0.23578736 0.03851193 0.25560468 -0.081858225 -0.057619497 0.19994383 0.21198538
-0.061863847 0.07801776 -0.16638286 -0.10906225 -0.2823125 0.37183383 0.03532747 0.052010935
-0.122269884 0.31582686 -0.0838526 0.088302985 -0.0529288 -0.29103786 0.5960203 0.041874353
0.5749449 0.53769374 -0.05812814 0.039841764 -0.61053985 0.61510473 -0.07038277 -0.5418883
0.43838608 -0.03935892 0.25467956 -0.16366309 -0.1363239 -0.03688056 -0.020605175 0.480283

encoder.4.weight f4 [32, 64]
00000000: 65b1 133e 4a35 febc 3096 d73d 9178 41bd
00000010: 219e e3bd 872e 2c3e 234c 603e 1dcf 96bc
00000020: 2b4d 92bd 259e 863d 287b 83be bc28 863d
00000030: 29c2 b33d c50a f2bc fd80 2e3e be64 b83d
00000040: 04e7 57be f708 0bbd 86e5 3cbd e461 98bc
00000050: cfe3 5f3c 7998 2b3e e0d3 51bd 320b 033e
00000060: 5ae3 8fbd 56df 203e 97db 8dbc 3746 1dbe
00000070: 51e9 06bd b237 8ebd 7dfd adbd 4943 3a3e
00000080: 12a5 15be 9797 e7bd 0d2a 20bb 497b bbbd
00000090: b780 25be 0431 453e b2e0 e33d ee53 373d
000000a0: 19fb 3d3e 0c69 763d 8748 abbd e32c 89bd
000000b0: f483 e9bd 068e 083e a7c2 8ebd ed19 90bd
000000c0: 15bf 5e3d 077b a13e ee6f e53d 5366 2fbe
000000d0: bad6 a23b e16b 293e df9f ccbd cb99 51be
000000e0: 0491 0b3b 5541 033d 03c1 38be e701 2ebe
000000f0: 2102 7d3d c131 74bd c4fc 6fbb 7462 de3e
00000100: 3694 a03d 6229 72be dbf2 a93d efa6 2dbd
00000110: 9fe0 153e 3ebf 1ebe 761a 883d fd1b 2d3b
00000120: ae91 253e e8c4 983c 1d0a 5f3e ba8e b8bd
00000130: 4cea 1f3c 7902 343d 6f60 023e 0225 123d
00000140: 4a1a 23be 9e99 ba3d 16da d8bd 5442 c13c
00000150: 5c69 d4bd 21e4 14be 805a bebc 310e ec3d
00000160: 220e 8e3c a795 25be a21e 75bd ca8a 2e3e
00000170: fed2 4abc 643d bc3c 4467 953d 28b3 0c3e
00000180: a660 9f3d 51f7 283d 39b4 69bd e60c 01be
00000190: be18 12be 2a70 e93d 72ff b83b 6661 763d
000001a0: d86b 413c 07e9 9f3d 62ad 143c e385 ffbc
000001b0: 70e2 f9bd dbf4 a0bd c9a0 ee3d f428 6d3d
000001c0: c79a a13d f3a7 aebc 1d12 0ebd a7bd acbd
000001d0: 3460 23be f22d 3dbe 34a3 9fbc 0a88 72be
000001e0: c2bb 3ebe e837 b3bd dd97 e53d 0159 e0bb
000001f0: de0f 89bd e3ff e63c a22f aa3d 0807 16be
00000200: 5322 1c3e eb0c 173e 0aee 053d c5c0 103d
00000210: b6f6 8e3e 9f42 f5bd 3f56 67be 6088 dcbc
00000220: fc9f 033e 1667 4f3d 06e6 4fbe 50f9 28bc
00000230: fb00 c4bd abf7 2ebd 2dff cb3d 2cb3 773c
00000240: 9c92 8ebc 75a0 2b3d 5ead 41bb d5f9 10bd
00000250: 71f6 b93d 5076 703d eb1d d5bb fa0f 073e
00000260: 352d 6bbe a7ce 59bd 167c 34bd 225c d5bd
00000270: bce8 ccbd 4800 2fbe ed8c 1c3e f271 babd
00000280: 4c8a 97bc 69fe 9e3c 77e3 afbd 513e c63c
00000290: b6e8 42bd 9315 5c3e d285 b5bd e215 133e
000002a0: 5077 4dbe 2271 71bd f8d5 d9bd 4763 a93e
000002b0: 94fb 81bd ad65 c9bd 5fb8 943e 3aa6 1d3e
000002c0: 1ef0 013e 1c77 013e e084 ca3d 098f 263c
000002d0: e9d2 e4bd 31ac febd 8958 9a3d b6e4 1bbe
000002e0: f2be 393e 7f89 4e3d 4b5d ff3d 57cb c53c
000002f0: 2cb4 eb3d cf66 f93d fc31 fcbd 16f7 fe3d
00000300: 2a53 983e db62 f13d 630c d73c 9012 1d3b
00000310: 89d8 493d d800 00be f559 edbd e7b8 5e3e
00000320: d5b7 033e 6bdb ce3d 30b1 f33e 5e8f 143c
00000330: 3068 8b3d 65ae 96bd fdad 123c 3806 243d
00000340: 0caa 07bd bb93 e13d 8f45 133d c838 2b3d
00000350: db34 86bd c356 c4bc 145c 8e3d 9c56 4bbd
00000360: 4ba0 983d a814 35be b9f3 c0bb d52b 0ebe
00000370: 7a51 2fbd 0e11 4cbd 8a65 4a3d eac5 983d
00000380: 6534 4d3e 8817 c03d a1b0 b7bd 1c12 14bd
00000390: 649a 853d 6c4b 74bd 024a e5bc e98c af3d
000003a0: 13f9 b13d d830 e03d ab13 fa3d 9ad7 cc3d
000003b0: c8d5 9b3c 5328 063e 4c3c 2bbc 2c74 4d3d
000003c0: 6157 3d3e adb6 43bd 699c 0ebe c142 2b3d
000003d0: 12af 0c3c 3c52 0c3e 1698 ff3d 8e76 273e
000003e0: f8e3 0abd 96bb 8f3d dc7b 433d 6525 fd3d
000003f0: c3f9 ff3c 326b 7fbd a272 f6bc 7347 853e
0.1442314 -0.03103127 0.10526693 -0.04723412 -0.11114145 0.16814624 0.21904044 -0.018409306
-0.07143625 0.065731324 -0.25679898 0.06550738 0.087772675 -0.029546151 0.17041393 0.0900359
-0.21084219 -0.033944096 -0.046117328 -0.018601365 0.013665154 0.16757382 -0.05122745 0.1279724
-0.07025786 0.15710196 -0.017316623 -0.15358816 -0.03293735 -0.06944217 -0.08495615 0.1818973
-0.1461375 -0.1130821 -0.0024439127 -0.09154374 -0.16162382 0.19256979 0.111268416 0.044757776
0.18552817 0.060158774 -0.08363443 -0.066980146 -0.11402121 0.13335428 -0.06970721 -0.07036195
0.05438145 0.31539175 0.112029895 -0.17128877 0.004969445 0.16545059 -0.099914305 -0.20468824
0.0021296153 0.032044727 -0.18042378 -0.16992913 0.06176961 -0.05961776 -0.0036619166 0.4343449
0.07840769 -0.23648599 0.08298274 -0.04239553 0.14636467 -0.1550264 0.06645672 0.0026414387
0.16168854 0.01864858 0.21781202 -0.09011598 0.009760451 0.04394767 0.12732099 0.035679825
-0.15927997 0.091113314 -0.105884716 0.023591198 -0.10371658 -0.1454015 -0.023236513 0.11526144
0.017340723 -0.16170369 -0.059843667 0.17045131 -0.012379406 0.022978492 0.07295087 0.13740218
0.07782106 0.041251484 -0.05705664 -0.12602577 -0.14267251 0.11398347 0.005645686 0.06015148
0.011805497 0.07808118 0.009074541 -0.031191772 -0.12201393 -0.078592025 0.11651761 0.057900384
0.078908496 -0.021320319 -0.034685243 -0.08434611 -0.15954667 -0.18474558 -0.019487001 -0.23684707
-0.18626311 -0.08750898 0.11210606 -0.0068465476 -0.066924796 0.028198188 0.083098665 -0.1465112
0.15247469 0.14751022 0.032697715 0.03534009 0.279226 -0.119755976 -0.22591494 -0.026920497
0.12853998 0.05063542 -0.2030259 -0.010313347 -0.095704995 -0.042716663 0.0996078 0.0151184015
-0.017403893 0.04190107 -0.0029552798 -0.03539451 0.09080208 0.05870658 -0.0065038106 0.13189688
-0.22966464 -0.053175595 -0.04406365 -0.104179636 -0.10005328 -0.17089951 0.15288134 -0.091037646
-0.018498562 0.019408422 -0.08588307 0.024199637 -0.04758521 0.21492605 -0.08863415 0.14363816
-0.20065045 -0.058945782 -0.106365144 0.33083555 -0.06346813 -0.09833846 0.29046914 0.15395442
0.12689254 0.12643093 0.09888625 0.010165938 -0.111730404 -0.12435187 0.07536418 -0.15223965
0.18139246 0.050424095 0.12468966 0.024144812 0.115089744 0.12177812 -0.12314221 0.12449472
0.2975095 0.11786433 0.026251024 0.0023967363 0.04927877 -0.12500322 -0.115894236 0.21750222
0.12863095 0.101004444 0.4759612 0.0090673845 0.068069816 -0.07357482 0.008952615 0.040044993
-0.033121154 0.110145055 0.035955008 0.041802198 -0.0655305 -0.023967152 0.06951156 -0.049643144
0.074524485 -0.17683661 -0.005888429 -0.13883908 -0.04280231 -0.049820952 0.04941324 0.07459624
0.20039518 0.09379488 -0.08969236 -0.036150083 0.06523588 -0.05964224 -0.027989391 0.08571798
0.08690085 0.10946816 0.122107826 0.1000206 0.019022837 0.1310132 -0.010451388 0.05015962
0.18490364 -0.047781635 -0.13926853 0.04181171 0.008586662 0.13703245 0.1248018 0.16353819
-0.033908814 0.07018201 0.047725543 0.12360648 0.031247025 -0.06235809 -0.030083958 0.26031074

encoder.4.bias f4 [32]
00000000: 7257 693e 6a61 953e c536 303e 9f37 07be
00000010: 4cd4 533d 68d4 1dbd a9e3 8fbe 0203 24bf
00000020: abed 6a3c d1f3 17bf 5571 433e f596 e23d
00000030: 8062 9e3d 840f cc3e 9e43 a53e 3fc1 b5be
00000040: 7a42 17be c18a 63bd 3ea4 dd3e 3dc4 823e
00000050: a1a6 fd3d cb69 ef3d c51f 08be cd29 ccbe
00000060: 642a b93d f1ff ca3d beff 99be e2e6 14bf
00000070: 2f24 553e 91a2 c83e 4fc9 a4bd 7e3e fc3e
0.22787264 0.29175884 0.17208393 -0.13204812 0.051716134 -0.038532645 -0.28103378 -0.6406709
0.014338891 -0.5935641 0.19086201 0.11063949 0.07733631 0.39855587 0.3227815 -0.35498998
-0.14771453 -0.055552248 0.4328937 0.25540343 0.123852976 0.116901 -0.13293369 -0.3987564
0.090412885 0.09912098 -0.30077928 -0.581648 0.20814584 0.39186528 -0.08046209 0.49266428

decoder.0.weight f4 [64, 32]
00000000: 0cc0 64bd 7e2d 0dbe f631 053e 0423 fe3d
00000010: f98a 823d 4306 dd3d c098 2c3e 47c5 583c
00000020: bb28 14be 0409 023e a295 4ebe 977f 08be
00000030: 01ce ca3d 02ed f63d 635f 803d b3d7 67be
00000040: c5b8 e23d 5e79 f93d c9f1 143e a757 563d
00000050: 9ead 863c ea39 333e dc24 bc3d 3759 fc3d
00000060: 7aa3 61be fa2d 883e e42c 103d 1fc0 483e
00000070: 9a48 b93d 83f1 37bd 58f0 ceb9 f2fd 583e
00000080: 5700 d63d 0e84 9fbe d255 33bd e8ae 053e
00000090: 4545 93bd 693d 25bd 7ddc 863e 0801 3bbe
000000a0: dd2f 213d 15e2 033e b00d a83e 675e 33be
000000b0: 596b 93be 599b 11bd 7b82 693d 9261 86be
000000c0: 2e99 373e cc00 86be 1a32 0e3e 825b ccbd
000000d0: 2e1d d1bd 90b2 4a3c 1740 293e a53d a13e
000000e0: def6 ae3d bdc4 443e 2b25 42be 7836 0fbe
000000f0: f379 c9bc c2ab a4bd 1dc8 1a3d b2d0 493e
00000100: af97 f23d 5f23 38be 6376 b53e a393 6f3c
00000110: ce77 64be df5b 5ebe 5b39 8e3e 6712 b93b
00000120: 1c26 98bd f78b 88bd ecc7 9cbe 892e f3bd
00000130: 8ebf 793c a70a 343e b078 59be 9f18 42bd
00000140: 5b85 f03d bfed ecbd 547a a93e 8db8 513e
00000150: e4c8 4dbe e802 7ebd 0b63 603e ccbc b13d
00000160: 4610 ad3e ee30 4dbe 2f73 c0bd f98a c4bb
00000170: 48c0 52be e189 fb3d ef76 f4bb 6a30 883e
00000180: 1311 df3d bb6d 943d b1cc 783d 98cb 5b3e
00000190: 70cc 95bc a67d 843d 7e21 03be 7a2c c7bd
000001a0: 972d 4bbe 76b1 3b3e 9466 053e 1bd4 55be
000001b0: a218 3fbc ad17 c5be 26dd aabe 9041 3ebe
000001c0: 0b48 173e 0910 a8bd 4186 163e b2e4 40be
000001d0: bdca 9f3e 0c5b b93d 6b9b 14bc d8d0 bc3e
000001e0: 329d 20be 4731 0bbd 774d 5fbe 0e28 4ebd
000001f0: 4849 643d a746 31bd 4ad4 1cbe 8668 423d
00000200: dc62 943e 9c9e 473d a04c 10be 5bc7 713e
00000210: cd74 d23d 63fb 07be afb4 d33e 3c0a 59be
00000220: 307c 40bd 193c e03d e439 82bc d84b 84bd
00000230: 8c84 963c 5273 02be 2c6e cdbd 3451 7cbe
00000240: 91ea c5be 1e54 12bd 2e9f 2b3e 342c 983e
00000250: a14b 613e 2d54 b2bc 3e53 e3bd a253 38bd
00000260: 3e52 bbbd fa9f 03be 9888 e9bd 21e3 7f3c
00000270: cb3b 903d e5ad ea3c 9cef 893d 4f10 6abe
00000280: f574 413e 5587 82be 9540 3fbe 2018 7b3d
00000290: 92ce 05bf 887b b73e bf24 1fbe adc9 b5bd
000002a0: 96f6 6fbe 6e5f 753e 328c 053e 7624 5bbc
000002b0: bcbf b73d b917 f13d 3bd7 473d b852 5c3e
000002c0: 5ca6 c43d d749 2dbe db41 e83d b538 853e
000002d0: e3f4 053e 278a 2cbe 6400 a5bd 9ff8 853c
000002e0: 8c74 90bd fb6a 7a3b bfe9 3abe 8efb 95ba
000002f0: 638a 2e3e 5611 383b 8e2a 3a3e b9b4 ac3c
00000300: 8ddc e0bd 5a9e 0f3d a152 003e fef5 4f3d
00000310: 7204 7d3e 60f4 12be 8723 48be 5fc4 21bd
00000320: c6b1 4e3e 2e2b 9b3d 2c69 3e3e e60e 1e3e
00000330: cc6e 433e 2e94 03bd a195 323d e388 9e3e
00000340: a2b7 86be a690 51bc 14f9 71bc 6fed aebd
00000350: 46c9 a53c 0f43 b3bc 52d4 f53d 8406 a5bd
00000360: 1859 2dbe d2de 753e e817 bf3d 3086 603c
00000370: cb45 27be 37d1 09be 0168 d3bd 1129 6dbd
00000380: 192b ef3d 65c1 08be 26f1 b0bc 83a4 663e
00000390: 75d9 b33e 72b5 b1bc 9557 c1bd 6b3a 34bd
000003a0: 2fb9 73be 8320 24be 2e70 2f3e 93ac 6b3d
000003b0: 9747 b03d 5167 283b 8d8c 20be 64fe b3bc
000003c0: f308 173e 91ab 13be 98f9 553e 6aba be3d
000003d0: f6d6 92be e264 a9bd 89ae 843e e6f6 15be
000003e0: ee64 a4bb 0b3f 5cbe 98d2 433a 88af 21bd
000003f0: a21e 443e 72d6 773e e789 2abe 2c79 0cbe
-0.055847213 -0.13786885 0.1300734 0.124090225 0.06374163 0.1079221 0.16855145 0.013230628
-0.14468662 0.12698752 -0.20174268 -0.13329922 0.099025734 0.120569244 0.062681936 -0.22640876
0.11070398 0.12181352 0.14545359 0.052329686 0.016440209 0.17502561 0.09186718 0.12321704
-0.22035018 0.26597577 0.03519906 0.19604538 0.09047051 -0.044908058 -0.00039470452 0.21190622
0.104492836 -0.31155437 -0.043783017 0.13055003 -0.071909465 -0.04034177 0.26340094 -0.18262112
0.039352287 0.12879212 0.32822943 -0.1751648 -0.28792837 -0.03554854 0.0570092 -0.26246315
0.17929527 -0.26172483 0.138863 -0.09978391 -0.10210644 0.012371674 0.16528355 0.31492344
0.0854318 0.19215675 -0.18959491 -0.13985622 -0.024594283 -0.08040573 0.0377885 0.19708517
0.118453376 -0.17982243 0.35441884 0.014622602 -0.22311327 -0.21714734 0.27778134 0.0056479457
-0.07429144 -0.06667321 -0.30621278 -0.1187411 0.015243424 0.17582189 -0.21237445 -0.04738676
0.117441855 -0.11568784 0.3310114 0.20480557 -0.20096165 -0.06201449 0.21912782 0.08678588
0.33801478 -0.20038196 -0.093969695 -0.005998012 -0.20581162 0.12282158 -0.007460467 0.26599437
0.108919285 0.07247492 0.060742084 0.21464384 -0.01828596 0.06469278 -0.12805745 -0.0972528
-0.1984161 0.18329415 0.13027412 -0.20881693 -0.011663588 -0.38494626 -0.33371848 -0.18579698
0.14773576 -0.082061835 0.14699651 -0.1883724 0.31209365 0.09050569 -0.009070258 0.36878085
-0.15684965 -0.03398254 -0.21806894 -0.050331168 0.05573395 -0.04328027 -0.15315357 0.047462963
0.28981674 0.048735246 -0.1409173 0.23611204 0.10276184 -0.1327949 0.41348788 -0.2119531
-0.046993434 0.10948963 -0.015896745 -0.064597785 0.01837375 -0.12739304 -0.10030779 -0.24640352
-0.38655522 -0.03572475 0.16759941 0.29721224 0.22001506 -0.021768654 -0.110998616 -0.045001633
-0.09146546 -0.12853995 -0.11403006 0.015618117 0.070426546 0.028647372 0.06735155 -0.22857784
0.18892272 -0.25493875 -0.1867698 0.061302304 -0.52268326 0.35836434 -0.15541361 -0.08876357
-0.23433909 0.23962185 0.13041762 -0.013375392 0.08972117 0.11772103 0.048789244 0.2151593
0.09602043 -0.16922699 0.11340686 0.26019827 0.13081698 -0.16849576 -0.08056715 0.016353903
-0.070534796 0.0038210738 -0.1825323 -0.0011442767 0.17044978 0.0028086505 0.18180296 0.021082269
-0.10979567 0.035063125 0.1253152 0.050771706 0.24708727 -0.14351034 -0.19544803 -0.039493915
0.20185003 0.07576595 0.18594807 0.15435371 0.19085234 -0.032123737 0.04359973 0.3096381
-0.26311976 -0.0127908345 -0.0147688575 -0.085413806 0.020237576 -0.021882562 0.120033875 -0.080578834
-0.16928518 0.2401078 0.09330732 0.013703868 -0.16335218 -0.13458715 -0.103225715 -0.057900492
0.11678142 -0.13355024 -0.021599364 0.22523694 0.35126844 -0.021692965 -0.09440533 -0.044001024
-0.2380111 -0.16028027 0.17132637 0.057537626 0.08607405 0.0025696347 -0.15678616 -0.021971889
0.14749508 -0.14420916 0.20895994 0.093128994 -0.28679627 -0.08271195 0.2591441 -0.14644966
-0.0050169146 -0.21508424 0.00074700406 -0.03947404 0.1915231 0.24202898 -0.16654168 -0.13718098

decoder.0.bias f4 [64]
00000000: 8cc7 133f feac 28be 08a2 9a3d 6862 c3be
00000010: c66b d63e c3d8 0c3f 0bec 203f b8c2 3a3f
00000020: 017e d83e 6a3b 4d3f ce1e 4fbf 368b 09be
00000030: 4605 843e a4f5 983e d549 213f e16b 2b3f
00000040: 38b2 023e ba13 d0be a6bd 0a3f 04f7 6a3c
00000050: a8c1 323f ee52 c7be 6e63 033f 3f50 003f
00000060: a0fa 1c3f 0fc9 85be fd7b 843e 8e54 3b3f
00000070: 4065 c03e dd10 353c 56ef 9abe 719c a03e
00000080: 64e7 383e 2c3f 353e c259 683f f568 8bbe
00000090: d1ca 0c3f 5ee9 15bf 0887 d53e 99a0 2a3f
000000a0: 966d 60bf 424c 40bf fdaf e13e 11cc 323f
000000b0: 5ffa 373e c7fa 153f edb7 6abf f2a2 06bf
000000c0: 5195 aebc 7b45 2b3f 0448 11bf 2215 9f3d
000000d0: 7047 2ebd d6bb 3e3e 215e 0f3f eb9b 6d3e
000000e0: b23f 55be e1b3 a43e 6b77 f03e bfef 0cbf
000000f0: ea3c f83e 64e9 09bf 6718 913e 8bff 83bd
0.5772636 -0.16472241 0.07550436 -0.38161016 0.418791 0.5501825 0.62860173 0.7295337
0.42283633 0.80168784 -0.8090638 -0.13432011 0.25785273 0.2987491 0.63003284 0.66961485
0.12763298 -0.4064005 0.5419563 0.01434112 0.69826746 -0.38930458 0.5132359 0.50122446
0.61319923 -0.26129958 0.25875846 0.73175895 0.37577248 0.011051384 -0.30260724 0.31369355
0.18057019 0.1769988 0.9076196 -0.27228513 0.54996973 -0.58559215 0.41704583 0.666513
-0.87667215 -0.7511636 0.4407958 0.6984263 0.17966603 0.5858578 -0.916869 -0.52592385
-0.021311434 0.66902894 -0.5675051 0.07767703 -0.042548597 0.18626341 0.56003004 0.23204009
-0.20825079 0.32168487 0.4696611 -0.55053324 0.48483974 -0.5387175 0.2833893 -0.06445225

decoder.2.weight f4 [128, 64]
00000000: 9916 583c 2cf7 d7bb 0e9c 97bd 8d83 8cbc
00000010: f3e3 04be 214f bbbc 917f fdbd a56b 04be
00000020: 6c89 3c3d 2565 fdbd 1a9b 0dbe 0c8c 1dbe
00000030: 712b 15be 5d7c ecbd 1172 0abd 84a0 22bd
00000040: 3a73 933d 7400 29bd 9458 13bc d0cb 76bc
00000050: cd03 763c 6317 c6bd 2d38 a2bc 2ac2 ce3d
00000060: c6b9 16be edbd bebc fe19 91bd c4f1 c6bd
00000070: 9b4b a63d 61eb a43d e292 92bd 6698 f7bd
00000080: e67f c6bd 5832 ea3c ef19 2cba 6289 833d
00000090: c4db 383d 1fd0 e8bd 4cd7 26be a65a 12be
000000a0: 019a 3d3d dc70 1bbd 906d 94b8 1dd2 2fbd
000000b0: fc75 eabd eed6 f8bd 93ef 03be 8123 acbd
000000c0: 16f2 403d 68fc 653d d71c 503c 86ab 27bd
000000d0: 0e75 abbd a1ac dbbc c6cc 703d 65b0 573d
000000e0: 1391 d7bd 1231 c9bc a4ae 42bc 1ce5 8a3d
000000f0: 00b1 54bd 25dc 053d 1c93 fd3c 90df 263d
00000100: 4f95 8f3e 5c9b 923d 5c9c f13b 9c09 cebe
00000110: 8588 08be 2ce6 2d3e 9e7d 0d3d fc6a 5dbc
00000120: cff3 213d 2ab5 993d 4c2b e03d db8f d3bd
00000130: 5a39 80be d6c6 013f 67b8 de3d cedb ce3d
00000140: f5fa 473d cd73 e73d 38e4 163e 0b46 2e3d
00000150: 7ce7 ff3c f0ad 9fbc 8406 343e e6e6 56be
00000160: edac 5ebe 7994 67bd 7a64 7a3d b8a0 243e
00000170: 220a 78bd 2bd7 f33d 88ea fdbd 01c6 a5bd
00000180: c6ba a73d c965 043f 0a64 be3c 3e91 01bd
00000190: 0754 25bd 06a7 803d 7aba a13c 433c 0fbd
000001a0: cb57 fabc a8dd ec3d 0777 9b3c a255 ef3d
000001b0: 36f2 3bbd 2a73 efbd 49ef 28be 1519 0d3e
000001c0: 531f 92bb fcf2 063e 92b6 69bd 7962 d83d
000001d0: 0636 3cbe 1f47 583e f69e 9d3c efe9 9cbd
000001e0: 506d 583e c3c9 bc3e 2940 b3bd 12d7 87bd
000001f0: af7b 5fbd 04c1 3cbc f93f 683d 40b8 633c
00000200: 8ac3 4abd 7645 16be 2c41 e03c f3cd 03bd
00000210: 52a9 723d ea1c a5bd b62e ffbd eca0 8b3c
00000220: fbbd e4bd b453 eebd a38c 69bd f56f a13d
00000230: 8cba 18bd c5d5 60bc da07 fd3b b6de 9c3d
00000240: 528e 953d 85d4 843d 760c 05be 02a9 743c
00000250: c795 93bd 0a7d afbd ed71 163d d200 e8bc
00000260: 1e10 80bc 9fd9 85bc ee71 173d c027 a7bc
00000270: 3189 663d 38bf 223d 6298 7b3d b29e a5bd
00000280: 5051 a5bc a235 1ebd 4e64 e6bc e8b3 c3bd
00000290: d6bb 7c3c 1323 c3bd c5e0 ddbd d090 29be
000002a0: 273b 03bd 6ddd 333d d956 08be e44a 40bd
000002b0: 93ad 26bd 69f3 c63c 4029 2c3d 3740 05be
000002c0: 20aa 863c 938e 7c3d 5a19 e2bb 7ce1 333d
000002d0: 9fd3 fabc a3ee 04be 49ef aebc dc2c 203d
000002e0: 27cf 99bd d923 3c3d 0682 9c3d 97ee 5fbd
000002f0: 8f92 a9bc 15da a9bc b4b0 113b 4079 d1bd
00000300: 50eb c8bd e39f f6bd e546 08be 8c42 14bd
00000310: b7c3 993d a281 15be da8f b7bd 14df 5a3d
00000320: 5b5e cfbc 24c8 0abe e87d b9bd fef4 07be
00000330: 30da 7cbc 4df0 09be b69f 233d a33b 1dbd
00000340: 7ae4 c5bd 7b03 1dbe 0614 90bd 11f5 b5bd
00000350: 0256 993d cb55 043d dfdb 1fbd f886 bbbc
00000360: b549 68bd 8d7d e6bc 1be4 cbbd b2c1 863d
00000370: 0052 6e3d b92c fabd 9027 f8bd c44e bbbd
00000380: 8f7c 783d 0b37 70bd bf10 9dbd 5e26 b13a
00000390: 3d60 7bbd b9bd fb3c 0adb c5bd 5c36 fcbc
000003a0: 7df9 513d 990d f2bd 0c2d 463d d110 03be
000003b0: df13 1cbe 2039 9b3c 293e 9b3d 9424 31bd
000003c0: 6168 0d3d b2ba eebd b014 5dbd 7f8d 9dbd
000003d0: c96e 1dbe 8daa edbb 0d31 d6bd 0c74 9cbd
000003e0: e988 e5bd e4b3 24bd 5c40 dfbd 756a 723d
000003f0: 9065 bbbc c0c8 093d 5a31 3a3c b82f 50bd
0.013188981 -0.0065907445 -0.07402812 -0.017152572 -0.1297758 -0.02286488 -0.12377847 -0.12931688
0.046029493 -0.123728074 -0.13828698 -0.15385455 -0.14567353 -0.11547158 -0.03380019 -0.03970386
0.07199712 -0.041260198 -0.008993287 -0.015063241 0.015015555 -0.096724294 -0.019802177 0.100956276
-0.14719304 -0.023283923 -0.07085036 -0.09714082 0.08119889 0.080527075 -0.07156922 -0.120896146
-0.096923634 0.028588459 -0.00065651437 0.06422688 0.04513146 -0.11367821 -0.16293067 -0.14292392
0.046289448 -0.037949428 -7.0775975e-05 -0.04292499 -0.11448285 -0.121503696 -0.12884359 -0.08405209
0.04710587 0.056148916 0.012702188 -0.040935062 -0.08371936 -0.026815714 0.058789037 0.052658457
-0.105257176 -0.024559531 -0.011882458 0.067819804 -0.051926613 0.03268065 0.030953936 0.04074055
0.280436 0.07158539 0.007373376 -0.40241706 -0.13333328 0.16982335 0.034543626 -0.013514277
0.039539155 0.075052574 0.10945758 -0.10330173 -0.25043756 0.50694025 0.10875016 0.10100518
0.048823316 0.11301384 0.14735496 0.042547267 0.03123831 -0.01949212 0.1758061 -0.20986518
-0.21745653 -0.05653808 0.06113098 0.16076934 -0.06055654 0.119062744 -0.12398249 -0.08094407
0.08189921 0.5171781 0.023241062 -0.031632654 -0.040363338 0.06281857 0.01974224 -0.03496958
-0.030559441 0.11565715 0.018977655 0.11686255 -0.045885287 -0.11691888 -0.1649753 0.137791
-0.0044593005 0.13178629 -0.05705888 0.10565657 -0.18379983 0.2112088 0.019240838 -0.07661807
0.2113545 0.36872682 -0.08752472 -0.06632818 -0.054561313 -0.011520628 0.056701634 0.013898909
-0.049502887 -0.14674935 0.027374826 -0.03217883 0.059243508 -0.080621555 -0.12460081 0.017044507
-0.111690484 -0.11637059 -0.057018887 0.07882682 -0.03728728 -0.013722842 0.0077218832 0.07659666
0.07302536 0.064858474 -0.12993035 0.014932873 -0.07206302 -0.08568771 0.03672974 -0.028320704
-0.015632685 -0.016339121 0.036973886 -0.020404696 0.05628318 0.03973314 0.06142462 -0.08086909
-0.020180374 -0.038625367 -0.028124 -0.09555799 0.015425643 -0.09528174 -0.10833887 -0.16559148
-0.032038834 0.04391234 -0.1331438 -0.04694642 -0.040692877 0.024285989 0.042031527 -0.13012777
0.016438544 0.061659407 -0.006899995 0.04391621 -0.030618487 -0.12981658 -0.021354334 0.03910528
-0.07510214 0.045932624 0.076419875 -0.054670896 -0.020699767 -0.020733872 0.0022230567 -0.10228205
-0.09810507 -0.12042215 -0.13308294 -0.036196277 0.07508033 -0.14600232 -0.089629844 0.0534354
-0.025313547 -0.1355291 -0.09057218 -0.13277051 -0.015432879 -0.13470574 0.039947234 -0.038386952
-0.09662719 -0.15333359 -0.07035069 -0.08884633 0.07487108 0.03230838 -0.039028045 -0.022891507
-0.056710918 -0.02813604 -0.09955617 0.06579913 0.05818367 -0.122155614 -0.12116921 -0.09145883
0.060665663 -0.058646243 -0.0766921 0.0013515463 -0.061371077 0.030730115 -0.09660919 -0.03078764
0.05126332 -0.11819 0.048382804 -0.12799384 -0.15241955 0.018948138 0.075802155 -0.043247774
0.03452337 -0.11656703 -0.053974807 -0.07693004 -0.15374292 -0.0072529973 -0.104585744 -0.07639322
-0.11207754 -0.04021062 -0.109009475 0.059183557 -0.022875577 0.033638716 0.011364305 -0.05082676

decoder.2.bias f4 [128]
00000000: cf9a 06bd ec85 ac3e 509e 883d 5f74 15be
00000010: ab48 c33e 3f5a 463d 0fcb 8d3e 1889 c2bd
00000020: 12a9 be3e 7375 8c3e f00e 0bbf 4e3e 89be
00000030: 6120 11bd 68bd 9abd b21f 453e 539c c63e
00000040: df04 663d e0c0 673d ef59 6fbe 423e c1bc
00000050: c013 c8bd 48ac 073f ea3e b43e 515b c33e
00000060: 3d13 243e c0e2 a6bc 5008 04bd 82b2 8ebf
00000070: 1a79 edbd e553 efbd 477b 703e 7b83 54bc
00000080: fdcc 563e 4009 283e 40dd 90be bed2 1f3f
00000090: 4998 543e 917b 84bd 00c3 0dbf f08b a2be
000000a0: f9c2 14bf 1c4c 173f a907 fa3e eb48 be3e
000000b0: fc7c 02bd 1f7b 2cbd 92b8 88be d4fb 41bf
000000c0: ba0a c93e b984 523d 6461 613e 75bf 473f
000000d0: 8ae6 bdbe 81d8 963e 76be 90bc a1c5 223f
000000e0: a789 3dbf 0c0f 4cbd 3df2 88bd 54f9 2dbe
000000f0: c41b 6dbe 5182 733f e30c 123e 58d4 f5bd
00000100: 5dc3 46be 5686 c93e 63ee 18be 84a5 653e
00000110: 94ec 8b3e 2c86 80be f6b5 893b 3dd1 0c3d
00000120: 5f66 72be 1e3a ad3e e325 4b3e 8614 23bf
00000130: c352 abbe cc6b 29bf 2498 333f f8e8 cf3d
00000140: f2c7 0dbe e3d2 1e3e 12c5 f3bd 6c85 98be
00000150: 3e63 823f d6cd af3e 0c93 a4bd f512 fd3e
00000160: a97b ea3e dacf 01be 97ee 8fbd 20f5 bdbc
00000170: c333 05be 231d b03e b4c8 e53d fd11 683f
00000180: 7a0e 96be 9863 c73d 5f87 453f 9ce0 283d
00000190: 79f8 963e e1bb 883d 04a9 b83d a0b8 4b3e
000001a0: 1a64 18be a52c d63e e573 543d 53a3 ae3e
000001b0: c794 a03d 68e4 c2be e057 24bd 5ba3 c63e
000001c0: 9c43 f23e 3848 adbe 76e1 53bd 04f8 163e
000001d0: bdd2 3b3c 6e54 923e a351 2bbd af48 1a3d
000001e0: 6b6a 353e ccfb c3bd 3a41 05be 6589 1ebe
000001f0: d23b a93e 9a40 843e a6d4 9cbf ce16 573e
-0.03286248 0.33695924 0.06670821 -0.14595173 0.3814138 0.04842591 0.27693984 -0.09498805
0.37238365 0.27433357 -0.5431967 -0.26805347 -0.03543127 -0.075556576 0.19250372 0.3879114
0.05615699 0.056580424 -0.2337415 -0.023589257 -0.09769392 0.52997255 0.3520425 0.38155606
0.16022964 -0.020371795 -0.03223449 -1.1148226 -0.11595364 -0.116859235 0.23484527 -0.0129708005
0.20976634 0.16409779 -0.282938 0.6243094 0.20761217 -0.06468881 -0.5537567 -0.3174739
-0.58110005 0.5910051 0.4883397 0.37165007 -0.031857476 -0.042109605 -0.26703316 -0.75774884
0.39265996 0.051396105 0.22009808 0.78026515 -0.3708995 0.29462054 -0.017668944 0.6358281
-0.74038166 -0.049819037 -0.06686828 -0.16989642 -0.23155123 0.9512072 0.14262728 -0.12003392
-0.19410463 0.39360303 -0.14934687 0.2242642 0.27328932 -0.25102365 0.0042025996 0.034379233
-0.23671864 0.33833402 0.19838671 -0.6370319 -0.3346158 -0.6618011 0.70154023 0.10151857
-0.13845804 0.15510134 -0.119028226 -0.29789293 1.0186536 0.34336728 -0.080358595 0.49428526
0.4579747 -0.12676945 -0.07027929 -0.023188174 -0.13008027 0.3439723 0.11219922 0.9065245
-0.2930792 0.09735793 0.77159685 0.04122983 0.29486445 0.0667646 0.09016612 0.19894648
-0.14881936 0.41830936 0.05186834 0.34108981 0.07840877 -0.38064885 -0.040122867 0.38796505
0.47317207 -0.3384416 -0.05172869 0.14743048 0.011463818 0.2858004 -0.0418259 0.037666973
0.17716376 -0.09569511 -0.13013163 -0.154821 0.33053452 0.25830537 -1.2252395 0.21004793

decoder.4.weight f4 [784, 128]
00000000: a7c0 a53d 0b2e 3e3b 2369 c4bc 1b10 843d
00000010: 055a 413b 635f e1bd 420e acbd 9d6e 973d
00000020: 2a60 e7bd 5498 01bd 1f6f fbbb 5713 ccbd
00000030: e3f2 1d3d 2679 693d b8b8 13be 863d b6bd
00000040: 8048 6dbd f3d3 a33c 2167 a9bd e225 6c3d
00000050: 0fcd 4bbe 9078 143d 2a84 10be 12f7 423d
00000060: 8dad 6fbd 8525 8cbd 0f4e 15bd eebd 1f3d
00000070: 73e3 49bd 9deb fb3c 34cf e5bc 7f15 943c
00000080: 7373 a3bd 749d cbbd ef19 1ebd 016b c9bd
00000090: 0b13 f0bc 2135 a4bd 4bc0 35bd 6040 97bd
000000a0: 67de 39be 6547 98bb 0014 88bb 3eec 22bd
000000b0: de82 f7bd 20ef 3b3c 3a93 4b3c 2e5e 25bd
000000c0: 3377 c4bd b1fc afbc 986a 63be da6c e83c
000000d0: 1350 b9bd fb07 ad3a 1b4d 5a3c daf4 bdbb
000000e0: 2f1f dabd d53c 113d 65bb 11bd 7a1b 3bbc
000000f0: 4238 14bc 27aa 8e3c 4c84 e8bd 9a06 35bd
00000100: 0e94 5dbe d9de d43c 268b 163d 4c8d a03d
00000110: 70f3 73bd baba d0bd f8b0 803c 43f2 6a3d
00000120: a0c6 7abc c087 1abe af08 9ebc a8fa 01be
00000130: c6a1 70bc 6bd9 0abe 286b 23bd b0d2 23bc
00000140: c35a 973b 8717 ccbd caef 17bd 59bc 693c
00000150: e631 7abd 6491 71bc d2ac f8bc 22e4 fcbd
00000160: 0260 b8bd 2656 87bd a3fe 213d 7caf c0bd
00000170: cabc 043d b631 06bd 31a6 afbc 25e2 153d
00000180: aa31 2abd 2cda 73bd cf62 1fbe 1577 01be
00000190: 56ee 6ebc a408 c6bc 0f49 27bd e749 dfbd
000001a0: 1c4e 4abe 1dc8 6abc ca50 81bc 885a 9abd
000001b0: 7cb1 76bd ec16 96bd ecf5 4e3b 2f66 353d
000001c0: aa4e 0abe 49a1 d93c 1e3a 8ebd e99a bcbd
000001d0: 6894 8ebd 9a1b 1a3d e6a3 15bd 374c 8dbd
000001e0: 1d22 aabc 3cba d3ba d243 69bd 6760 623d
000001f0: 9b0f f13c 761b 5abb 041d f3bd afd9 60bd
00000200: 57e2 5e3d 9be3 63bd 7b27 263d be6c 7a3d
00000210: 88c1 82bd 4258 df3c 9f45 fbbc 5bfc 513d
00000220: c554 42bc fcca 003d 17ad 2abd 06e6 9e3c
00000230: e1e4 183c b1ed 953d 057f 3bbe b3af 093d
00000240: cb12 c5bd 7c10 f4bd 08da 6dbd 1bcb d1bc
00000250: 6a7f edbd 3e72 c8bd 4efd 65be f5a6 a5bc
00000260: eaad a33c 2662 a7bd 3d4a 9ebd 0f44 4fbd
00000270: 1047 b23b 7403 b8bc 43f3 353d 1695 b03c
00000280: fd35 653b de70 ecbd 4179 4fbd 67a8 4cbd
00000290: cf3f 51bd 0580 793d 3663 bdbd c34c fcbc
000002a0: 1d91 2ebe 91af 1cbd d543 463d 4f01 b23c
000002b0: a1f5 203d 51b7 97bb 4c63 50bd e64c d7bc
000002c0: c90b a43b c3fb ce3c 1492 c7bd c203 16bd
000002d0: b38e c6bd d753 e6bd ee9c a8bd a272 7cbd
000002e0: a02d 3ebe 5671 063d 0847 5fbd 421f 8b3d
000002f0: 65ef 0d3b 983c dcbd ff5e d1ba 540b 1abd
00000300: 69e9 b3bd 4173 31bd e1ef 843c 8e56 3dbd
00000310: b63b fcbd 0ca5 d3bd d88a 81bd fd2b 2cbd
00000320: 0730 77bd 90a2 3cbe 52f8 f8bd 1d69 5bbc
00000330: 8804 13bd ae40 1abe 9977 603d abe5 783c
00000340: 8a81 55bd 42ce 4e3d 8bf3 35bd 235e 95bc
00000350: 6391 bdbd 0dd8 f1bd 9248 5f3d 1486 cebd
00000360: a49d 1e3d 3d9e ae3c d866 623d 95c8 f6bd
00000370: 1ea1 9cbd c645 35bd 224f f3bc 2d0d dfbd
00000380: 045a dabd cccc 043c 9c1a 74be 7d21 f2bd
00000390: 5b96 373d 74da ddbd a8d2 5abd 79a9 443d
000003a0: da4a e6bd d56e 3d3d 8877 06bd 528f d0bd
000003b0: 071b 8cbd 0eed 5c3c ce25 f4bc 67a6 61bd
000003c0: e96a 21be e561 a3bd 6e07 213d 80c0 3ebd
000003d0: 7a10 943d 8a6e 2ebd ab1d e0bc 7c67 24bc
000003e0: c84d fcbd 80ec acbd 02a7 9c3d f168 8b3d
000003f0: c484 0b3d 94f1 a4bb 34db 33bd d726 00be
0.08093386 0.0029019143 -0.023975914 0.064483844 0.0029503119 -0.11004522 -0.08401157 0.07394145
-0.11297639 -0.031639412 -0.007673159 -0.09964626 0.038561713 0.0570003 -0.14425933 -0.088984534
-0.05793047 0.019998526 -0.082716234 0.057653315 -0.19902442 0.03624779 -0.14112917 0.047598906
-0.05851512 -0.06843094 -0.036451396 0.03899949 -0.049289178 0.030751998 -0.028052904 0.018076656
-0.079810046 -0.09942141 -0.03859895 -0.098348625 -0.029305955 -0.08017946 -0.044372838 -0.073853254
-0.18151246 -0.0046471828 -0.004152775 -0.03977608 -0.12085508 0.011470586 0.012425238 -0.04037302
-0.09593048 -0.021482797 -0.22208631 0.028372217 -0.09048476 0.0013201231 0.013324047 -0.005797011
-0.10650479 0.035458405 -0.035579104 -0.011420125 -0.009046616 0.01741512 -0.113533586 -0.04419575
-0.2163851 0.025985168 0.036753796 0.0783945 -0.059558332 -0.10191865 0.015709385 0.057359945
-0.015306145 -0.15090847 -0.01929125 -0.12693274 -0.014687007 -0.13559501 -0.039897114 -0.009998962
0.004618974 -0.09965425 -0.037093915 0.014266097 -0.061082743 -0.0147441365 -0.030355845 -0.123482004
-0.09002687 -0.066082284 0.03954948 -0.09408471 0.032406606 -0.03276225 -0.02144155 0.03659262
-0.04155127 -0.059534237 -0.15565036 -0.12643082 -0.014583191 -0.024174042 -0.04084116 -0.10902768
-0.19756359 -0.014329937 -0.015785594 -0.07536799 -0.060227856 -0.07328591 0.0031579686 0.044286903
-0.1350657 0.026566165 -0.06944679 -0.09209234 -0.069619 0.03762398 -0.03653326 -0.068993025
-0.02076822 -0.0016153525 -0.056949444 0.055267718 0.029426387 -0.0033280528 -0.11870769 -0.0548951
0.054415073 -0.055636983 0.040564995 0.06113886 -0.063845694 0.027263764 -0.030672846 0.051266056
-0.011861031 0.03144358 -0.041668978 0.019396793 0.009331913 0.07320727 -0.18310173 0.033614825
-0.09622725 -0.11917207 -0.05806926 -0.025609544 -0.11596568 -0.09787415 -0.2245991 -0.020221213
0.01998039 -0.08173017 -0.077290036 -0.050602015 0.0054406 -0.022462584 0.044421446 0.021555465
0.0034974806 -0.11544965 -0.050652746 -0.04996529 -0.051086243 0.060913105 -0.092474386 -0.030798322
-0.17047544 -0.03825337 0.048404533 0.02172914 0.03929675 -0.0046300073 -0.050875947 -0.026281785
0.0050062877 0.025266534 -0.09744659 -0.036624677 -0.096951865 -0.1124646 -0.08233057 -0.06163276
-0.18572092 0.03282293 -0.0545111 0.06793071 0.0021657583 -0.10753745 -0.0015973746 -0.03760846
-0.08784754 -0.043322805 0.016227664 -0.046225123 -0.123160765 -0.103342146 -0.063253105 -0.042034138
-0.060348537 -0.18421388 -0.12156738 -0.01339176 -0.035892993 -0.15063736 0.054801557 0.015191476
-0.05212549 0.05048967 -0.044421714 -0.018233364 -0.09256246 -0.118087865 0.054512568 -0.10084167
0.038724557 0.021315688 0.05527386 -0.12049977 -0.07647918 -0.044255994 -0.02970082 -0.10891185
-0.106617 0.008105468 -0.23838276 -0.11822794 0.044821125 -0.10832682 -0.053423554 0.048013184
-0.112447456 0.046248276 -0.032828838 -0.10183586 -0.068410926 0.013484253 -0.029803183 -0.055090334
-0.15763439 -0.07977656 0.039313726 -0.0465703 0.07229705 -0.042585887 -0.027357897 -0.010034438
-0.12319523 -0.08443546 0.07649042 0.06807125 0.034062162 -0.005033681 -0.04391022 -0.12514816
